…
2022-06-11 11:15:28.370168: W tensorflow/compiler/tf2xla/kernels/random_ops.cc:57] Warning: Using tf.random.uniform with XLA compilation will ignore seeds; consider using tf.random.stateless_uniform instead if reproducible behavior is desired. RandomUniform
Model: "model"
__________________________________________________________________________________________________
 Layer (type)                   Output Shape         Param #     Connected to                     
==================================================================================================
 input_1 (InputLayer)           [(None, 550, 6)]     0           []                               
                                                                                                  
 conv1d (Conv1D)                (None, 550, 64)      1216        ['input_1[0][0]']                
                                                                                                  
 concatenate (Concatenate)      (None, 550, 70)      0           ['conv1d[0][0]',                 
                                                                  'input_1[0][0]']                
                                                                                                  
 dense (Dense)                  (None, 550, 32)      2272        ['concatenate[0][0]']            
                                                                                                  
 leaky_re_lu (LeakyReLU)        (None, 550, 32)      0           ['dense[0][0]']                  
                                                                                                  
 conv1d_1 (Conv1D)              (None, 550, 128)     20608       ['leaky_re_lu[0][0]']            
                                                                                                  
 concatenate_1 (Concatenate)    (None, 550, 160)     0           ['conv1d_1[0][0]',               
                                                                  'leaky_re_lu[0][0]']            
                                                                                                  
 dense_1 (Dense)                (None, 550, 64)      10304       ['concatenate_1[0][0]']          
                                                                                                  
 conv1d_2 (Conv1D)              (None, 550, 128)     41088       ['dense_1[0][0]']                
                                                                                                  
 concatenate_2 (Concatenate)    (None, 550, 192)     0           ['conv1d_2[0][0]',               
                                                                  'dense_1[0][0]']                
                                                                                                  
 dense_2 (Dense)                (None, 550, 128)     24704       ['concatenate_2[0][0]']          
                                                                                                  
 conv1d_3 (Conv1D)              (None, 550, 128)     82048       ['dense_2[0][0]']                
                                                                                                  
 add (Add)                      (None, 550, 128)     0           ['conv1d_3[0][0]',               
                                                                  'dense_2[0][0]']                
                                                                                                  
 conv1d_4 (Conv1D)              (None, 550, 128)     82048       ['add[0][0]']                    
                                                                                                  
 add_1 (Add)                    (None, 550, 128)     0           ['conv1d_4[0][0]',               
                                                                  'add[0][0]']                    
                                                                                                  
 conv1d_5 (Conv1D)              (None, 550, 128)     82048       ['add_1[0][0]']                  
                                                                                                  
 add_2 (Add)                    (None, 550, 128)     0           ['conv1d_5[0][0]',               
                                                                  'add_1[0][0]']                  
                                                                                                  
 conv1d_6 (Conv1D)              (None, 550, 128)     82048       ['add_2[0][0]']                  
                                                                                                  
 add_3 (Add)                    (None, 550, 128)     0           ['conv1d_6[0][0]',               
                                                                  'add_2[0][0]']                  
                                                                                                  
 conv1d_7 (Conv1D)              (None, 550, 128)     82048       ['add_3[0][0]']                  
                                                                                                  
 add_4 (Add)                    (None, 550, 128)     0           ['conv1d_7[0][0]',               
                                                                  'add_3[0][0]']                  
                                                                                                  
 dense_3 (Dense)                (None, 550, 32)      4128        ['add_4[0][0]']                  
                                                                                                  
 leaky_re_lu_1 (LeakyReLU)      (None, 550, 32)      0           ['dense_3[0][0]']                
                                                                                                  
 dense_4 (Dense)                (None, 550, 16)      528         ['leaky_re_lu_1[0][0]']          
                                                                                                  
 leaky_re_lu_2 (LeakyReLU)      (None, 550, 16)      0           ['dense_4[0][0]']                
                                                                                                  
 tf.__operators__.getitem (Slic  (None, 6)           0           ['input_1[0][0]']                
 ingOpLambda)                                                                                     
                                                                                                  
 input_2 (InputLayer)           [(None, 2)]          0           []                               
                                                                                                  
 flatten (Flatten)              (None, 8800)         0           ['leaky_re_lu_2[0][0]']          
                                                                                                  
 reshape (Reshape)              (None, 6)            0           ['tf.__operators__.getitem[0][0]'
                                                                 ]                                
                                                                                                  
 concatenate_3 (Concatenate)    (None, 8808)         0           ['input_2[0][0]',                
                                                                  'flatten[0][0]',                
                                                                  'reshape[0][0]']                
                                                                                                  
 dense_5 (Dense)                (None, 512)          4510208     ['concatenate_3[0][0]']          
                                                                                                  
 leaky_re_lu_3 (LeakyReLU)      (None, 512)          0           ['dense_5[0][0]']                
                                                                                                  
 dense_6 (Dense)                (None, 512)          262656      ['leaky_re_lu_3[0][0]']          
                                                                                                  
 leaky_re_lu_4 (LeakyReLU)      (None, 512)          0           ['dense_6[0][0]']                
                                                                                                  
 dense_7 (Dense)                (None, 512)          262656      ['leaky_re_lu_4[0][0]']          
                                                                                                  
 leaky_re_lu_5 (LeakyReLU)      (None, 512)          0           ['dense_7[0][0]']                
                                                                                                  
 dense_8 (Dense)                (None, 512)          262656      ['leaky_re_lu_5[0][0]']          
                                                                                                  
 leaky_re_lu_6 (LeakyReLU)      (None, 512)          0           ['dense_8[0][0]']                
                                                                                                  
 dense_9 (Dense)                (None, 2)            1024        ['leaky_re_lu_6[0][0]']          
                                                                                                  
==================================================================================================
Total params: 5,814,288
Trainable params: 5,814,288
Non-trainable params: 0
__________________________________________________________________________________________________
…
