…
2022-05-29 12:01:47.841019: W tensorflow/compiler/tf2xla/kernels/random_ops.cc:57] Warning: Using tf.random.uniform with XLA compilation will ignore seeds; consider using tf.random.stateless_uniform instead if reproducible behavior is desired. RandomUniform
Model: "model"
__________________________________________________________________________________________________
 Layer (type)                   Output Shape         Param #     Connected to                     
==================================================================================================
 input_1 (InputLayer)           [(None, 580, 6)]     0           []                               
                                                                                                  
 dense (Dense)                  (None, 580, 16)      112         ['input_1[0][0]']                
                                                                                                  
 dense_1 (Dense)                (None, 580, 16)      272         ['dense[0][0]']                  
                                                                                                  
 conv1d (Conv1D)                (None, 580, 64)      3136        ['dense_1[0][0]']                
                                                                                                  
 concatenate (Concatenate)      (None, 580, 80)      0           ['conv1d[0][0]',                 
                                                                  'dense_1[0][0]']                
                                                                                                  
 dense_2 (Dense)                (None, 580, 32)      2592        ['concatenate[0][0]']            
                                                                                                  
 conv1d_1 (Conv1D)              (None, 580, 512)     344576      ['dense_2[0][0]']                
                                                                                                  
 concatenate_1 (Concatenate)    (None, 580, 544)     0           ['conv1d_1[0][0]',               
                                                                  'dense_2[0][0]']                
                                                                                                  
 dense_3 (Dense)                (None, 580, 512)     279040      ['concatenate_1[0][0]']          
                                                                                                  
 dense_4 (Dense)                (None, 580, 256)     131328      ['dense_3[0][0]']                
                                                                                                  
 conv1d_2 (Conv1D)              (None, 580, 1024)    5506048     ['dense_4[0][0]']                
                                                                                                  
 concatenate_2 (Concatenate)    (None, 580, 1280)    0           ['conv1d_2[0][0]',               
                                                                  'dense_4[0][0]']                
                                                                                                  
 dense_5 (Dense)                (None, 580, 512)     655872      ['concatenate_2[0][0]']          
                                                                                                  
 dense_6 (Dense)                (None, 580, 256)     131328      ['dense_5[0][0]']                
                                                                                                  
 input_2 (InputLayer)           [(None, 2)]          0           []                               
                                                                                                  
 lstm (LSTM)                    (None, 256)          525312      ['dense_6[0][0]']                
                                                                                                  
 concatenate_3 (Concatenate)    (None, 258)          0           ['input_2[0][0]',                
                                                                  'lstm[0][0]']                   
                                                                                                  
 dense_7 (Dense)                (None, 512)          132608      ['concatenate_3[0][0]']          
                                                                                                  
 leaky_re_lu (LeakyReLU)        (None, 512)          0           ['dense_7[0][0]']                
                                                                                                  
 dense_8 (Dense)                (None, 512)          262656      ['leaky_re_lu[0][0]']            
                                                                                                  
 leaky_re_lu_1 (LeakyReLU)      (None, 512)          0           ['dense_8[0][0]']                
                                                                                                  
 dense_9 (Dense)                (None, 512)          262656      ['leaky_re_lu_1[0][0]']          
                                                                                                  
 leaky_re_lu_2 (LeakyReLU)      (None, 512)          0           ['dense_9[0][0]']                
                                                                                                  
 dense_10 (Dense)               (None, 3)            1536        ['leaky_re_lu_2[0][0]']          
                                                                                                  
==================================================================================================
Total params: 8,239,072
Trainable params: 8,239,072
Non-trainable params: 0
__________________________________________________________________________________________________
…
