…
2022-06-02 11:20:39.315759: W tensorflow/compiler/tf2xla/kernels/random_ops.cc:57] Warning: Using tf.random.uniform with XLA compilation will ignore seeds; consider using tf.random.stateless_uniform instead if reproducible behavior is desired. RandomUniform
Model: "model"
__________________________________________________________________________________________________
 Layer (type)                   Output Shape         Param #     Connected to                     
==================================================================================================
 input_1 (InputLayer)           [(None, 550, 6)]     0           []                               
                                                                                                  
 conv1d (Conv1D)                (None, 550, 64)      1216        ['input_1[0][0]']                
                                                                                                  
 dense (Dense)                  (None, 550, 16)      112         ['input_1[0][0]']                
                                                                                                  
 lambda (Lambda)                (None, 5, 6)         0           ['input_1[0][0]']                
                                                                                                  
 concatenate (Concatenate)      (None, 550, 80)      0           ['conv1d[0][0]',                 
                                                                  'dense[0][0]']                  
                                                                                                  
 flatten (Flatten)              (None, 30)           0           ['lambda[0][0]']                 
                                                                                                  
 lstm (LSTM)                    (None, 550, 32)      14464       ['concatenate[0][0]']            
                                                                                                  
 dense_11 (Dense)               (None, 128)          3968        ['flatten[0][0]']                
                                                                                                  
 concatenate_1 (Concatenate)    (None, 550, 112)     0           ['lstm[0][0]',                   
                                                                  'concatenate[0][0]']            
                                                                                                  
 dense_12 (Dense)               (None, 128)          16512       ['dense_11[0][0]']               
                                                                                                  
 conv1d_1 (Conv1D)              (None, 550, 64)      21568       ['concatenate_1[0][0]']          
                                                                                                  
 dense_13 (Dense)               (None, 30)           3870        ['dense_12[0][0]']               
                                                                                                  
 concatenate_2 (Concatenate)    (None, 550, 176)     0           ['conv1d_1[0][0]',               
                                                                  'concatenate_1[0][0]']          
                                                                                                  
 reshape (Reshape)              (None, 5, 6)         0           ['dense_13[0][0]']               
                                                                                                  
 dense_1 (Dense)                (None, 550, 64)      11328       ['concatenate_2[0][0]']          
                                                                                                  
 add (Add)                      (None, 5, 6)         0           ['lambda[0][0]',                 
                                                                  'reshape[0][0]']                
                                                                                                  
 max_pooling1d (MaxPooling1D)   (None, 275, 64)      0           ['dense_1[0][0]']                
                                                                                                  
 conv1d_3 (Conv1D)              (None, 5, 32)        416         ['add[0][0]']                    
                                                                                                  
 conv1d_2 (Conv1D)              (None, 275, 64)      12352       ['max_pooling1d[0][0]']          
                                                                                                  
 concatenate_4 (Concatenate)    (None, 5, 38)        0           ['add[0][0]',                    
                                                                  'conv1d_3[0][0]']               
                                                                                                  
 concatenate_3 (Concatenate)    (None, 275, 128)     0           ['conv1d_2[0][0]',               
                                                                  'max_pooling1d[0][0]']          
                                                                                                  
 flatten_1 (Flatten)            (None, 190)          0           ['concatenate_4[0][0]']          
                                                                                                  
 dense_2 (Dense)                (None, 275, 64)      8256        ['concatenate_3[0][0]']          
                                                                                                  
 dense_14 (Dense)               (None, 128)          24448       ['flatten_1[0][0]']              
                                                                                                  
 max_pooling1d_1 (MaxPooling1D)  (None, 137, 64)     0           ['dense_2[0][0]']                
                                                                                                  
 dense_15 (Dense)               (None, 320)          41280       ['dense_14[0][0]']               
                                                                                                  
 layer_normalization (LayerNorm  (None, 137, 64)     128         ['max_pooling1d_1[0][0]']        
 alization)                                                                                       
                                                                                                  
 reshape_1 (Reshape)            (None, 5, 64)        0           ['dense_15[0][0]']               
                                                                                                  
 positions (Positions)          (None, 137, 64)      0           ['layer_normalization[0][0]']    
                                                                                                  
 gru (GRU)                      (None, 5, 4)         840         ['reshape_1[0][0]']              
                                                                                                  
 transformer_block (Transformer  (None, 137, 64)     132864      ['positions[0][0]',              
 Block)                                                           'positions[0][0]']              
                                                                                                  
 concatenate_5 (Concatenate)    (None, 5, 68)        0           ['reshape_1[0][0]',              
                                                                  'gru[0][0]']                    
                                                                                                  
 transformer_block_1 (Transform  (None, 137, 64)     132864      ['transformer_block[0][0]',      
 erBlock)                                                         'transformer_block[0][0]']      
                                                                                                  
 dense_16 (Dense)               (None, 5, 64)        4416        ['concatenate_5[0][0]']          
                                                                                                  
 transformer_block_2 (Transform  (None, 137, 64)     132864      ['transformer_block_1[0][0]',    
 erBlock)                                                         'transformer_block_1[0][0]']    
                                                                                                  
 transformer_block_4 (Transform  (None, 5, 64)       83200       ['dense_16[0][0]',               
 erBlock)                                                         'dense_16[0][0]']               
                                                                                                  
 transformer_block_3 (Transform  (None, 137, 64)     132864      ['transformer_block_2[0][0]',    
 erBlock)                                                         'transformer_block_2[0][0]']    
                                                                                                  
 transformer_block_5 (Transform  (None, 5, 64)       83200       ['transformer_block_4[0][0]',    
 erBlock)                                                         'transformer_block_3[0][0]']    
                                                                                                  
 transformer_block_6 (Transform  (None, 5, 64)       83200       ['transformer_block_5[0][0]',    
 erBlock)                                                         'transformer_block_5[0][0]']    
                                                                                                  
 transformer_block_7 (Transform  (None, 5, 64)       83200       ['transformer_block_6[0][0]',    
 erBlock)                                                         'transformer_block_3[0][0]']    
                                                                                                  
 input_2 (InputLayer)           [(None, 2)]          0           []                               
                                                                                                  
 flatten_2 (Flatten)            (None, 320)          0           ['transformer_block_7[0][0]']    
                                                                                                  
 concatenate_6 (Concatenate)    (None, 322)          0           ['input_2[0][0]',                
                                                                  'flatten_2[0][0]']              
                                                                                                  
 dense_25 (Dense)               (None, 512)          165376      ['concatenate_6[0][0]']          
                                                                                                  
 leaky_re_lu (LeakyReLU)        (None, 512)          0           ['dense_25[0][0]']               
                                                                                                  
 dense_26 (Dense)               (None, 512)          262656      ['leaky_re_lu[0][0]']            
                                                                                                  
 leaky_re_lu_1 (LeakyReLU)      (None, 512)          0           ['dense_26[0][0]']               
                                                                                                  
 dense_27 (Dense)               (None, 512)          262656      ['leaky_re_lu_1[0][0]']          
                                                                                                  
 leaky_re_lu_2 (LeakyReLU)      (None, 512)          0           ['dense_27[0][0]']               
                                                                                                  
 dense_28 (Dense)               (None, 3)            1536        ['leaky_re_lu_2[0][0]']          
                                                                                                  
==================================================================================================
Total params: 1,721,654
Trainable params: 1,721,654
Non-trainable params: 0
__________________________________________________________________________________________________
